{"modelTopology":{"class_name":"Model","config":{"name":"decoder","layers":[{"name":"input36","class_name":"InputLayer","config":{"batch_input_shape":[null,2],"dtype":"float32","sparse":false,"name":"input36"},"inbound_nodes":[]},{"name":"dense_Dense111","class_name":"Dense","config":{"units":512,"activation":"linear","use_bias":true,"kernel_initializer":{"class_name":"VarianceScaling","config":{"scale":1,"mode":"fan_avg","distribution":"normal","seed":null}},"bias_initializer":{"class_name":"Zeros","config":{}},"kernel_regularizer":null,"bias_regularizer":null,"activity_regularizer":null,"kernel_constraint":null,"bias_constraint":null,"name":"dense_Dense111","trainable":true},"inbound_nodes":[[["input36",0,0,{}]]]},{"name":"batch_normalization_BatchNormalization69","class_name":"BatchNormalization","config":{"axis":1,"momentum":0.99,"epsilon":0.001,"center":true,"scale":true,"beta_initializer":{"class_name":"Zeros","config":{}},"gamma_initializer":{"class_name":"Ones","config":{}},"moving_mean_initializer":{"class_name":"Zeros","config":{}},"moving_variance_initializer":{"class_name":"Ones","config":{}},"beta_regularizer":null,"gamma_regularizer":null,"beta_constraint":null,"gamma_constraint":null,"name":"batch_normalization_BatchNormalization69","trainable":true},"inbound_nodes":[[["dense_Dense111",0,0,{}]]]},{"name":"leaky_re_lu_LeakyReLU69","class_name":"LeakyReLU","config":{"alpha":0.3,"name":"leaky_re_lu_LeakyReLU69","trainable":true},"inbound_nodes":[[["batch_normalization_BatchNormalization69",0,0,{}]]]},{"name":"dense_Dense112","class_name":"Dense","config":{"units":512,"activation":"linear","use_bias":true,"kernel_initializer":{"class_name":"VarianceScaling","config":{"scale":1,"mode":"fan_avg","distribution":"normal","seed":null}},"bias_initializer":{"class_name":"Zeros","config":{}},"kernel_regularizer":null,"bias_regularizer":null,"activity_regularizer":null,"kernel_constraint":null,"bias_constraint":null,"name":"dense_Dense112","trainable":true},"inbound_nodes":[[["leaky_re_lu_LeakyReLU69",0,0,{}]]]},{"name":"dense_Dense114","class_name":"Dense","config":{"units":512,"activation":"linear","use_bias":true,"kernel_initializer":{"class_name":"VarianceScaling","config":{"scale":1,"mode":"fan_avg","distribution":"normal","seed":null}},"bias_initializer":{"class_name":"Zeros","config":{}},"kernel_regularizer":null,"bias_regularizer":null,"activity_regularizer":null,"kernel_constraint":null,"bias_constraint":null,"name":"dense_Dense114","trainable":true},"inbound_nodes":[[["leaky_re_lu_LeakyReLU69",0,0,{}]]]},{"name":"dense_Dense116","class_name":"Dense","config":{"units":512,"activation":"linear","use_bias":true,"kernel_initializer":{"class_name":"VarianceScaling","config":{"scale":1,"mode":"fan_avg","distribution":"normal","seed":null}},"bias_initializer":{"class_name":"Zeros","config":{}},"kernel_regularizer":null,"bias_regularizer":null,"activity_regularizer":null,"kernel_constraint":null,"bias_constraint":null,"name":"dense_Dense116","trainable":true},"inbound_nodes":[[["leaky_re_lu_LeakyReLU69",0,0,{}]]]},{"name":"batch_normalization_BatchNormalization70","class_name":"BatchNormalization","config":{"axis":1,"momentum":0.99,"epsilon":0.001,"center":true,"scale":true,"beta_initializer":{"class_name":"Zeros","config":{}},"gamma_initializer":{"class_name":"Ones","config":{}},"moving_mean_initializer":{"class_name":"Zeros","config":{}},"moving_variance_initializer":{"class_name":"Ones","config":{}},"beta_regularizer":null,"gamma_regularizer":null,"beta_constraint":null,"gamma_constraint":null,"name":"batch_normalization_BatchNormalization70","trainable":true},"inbound_nodes":[[["dense_Dense112",0,0,{}]]]},{"name":"batch_normalization_BatchNormalization71","class_name":"BatchNormalization","config":{"axis":1,"momentum":0.99,"epsilon":0.001,"center":true,"scale":true,"beta_initializer":{"class_name":"Zeros","config":{}},"gamma_initializer":{"class_name":"Ones","config":{}},"moving_mean_initializer":{"class_name":"Zeros","config":{}},"moving_variance_initializer":{"class_name":"Ones","config":{}},"beta_regularizer":null,"gamma_regularizer":null,"beta_constraint":null,"gamma_constraint":null,"name":"batch_normalization_BatchNormalization71","trainable":true},"inbound_nodes":[[["dense_Dense114",0,0,{}]]]},{"name":"batch_normalization_BatchNormalization72","class_name":"BatchNormalization","config":{"axis":1,"momentum":0.99,"epsilon":0.001,"center":true,"scale":true,"beta_initializer":{"class_name":"Zeros","config":{}},"gamma_initializer":{"class_name":"Ones","config":{}},"moving_mean_initializer":{"class_name":"Zeros","config":{}},"moving_variance_initializer":{"class_name":"Ones","config":{}},"beta_regularizer":null,"gamma_regularizer":null,"beta_constraint":null,"gamma_constraint":null,"name":"batch_normalization_BatchNormalization72","trainable":true},"inbound_nodes":[[["dense_Dense116",0,0,{}]]]},{"name":"leaky_re_lu_LeakyReLU70","class_name":"LeakyReLU","config":{"alpha":0.3,"name":"leaky_re_lu_LeakyReLU70","trainable":true},"inbound_nodes":[[["batch_normalization_BatchNormalization70",0,0,{}]]]},{"name":"leaky_re_lu_LeakyReLU71","class_name":"LeakyReLU","config":{"alpha":0.3,"name":"leaky_re_lu_LeakyReLU71","trainable":true},"inbound_nodes":[[["batch_normalization_BatchNormalization71",0,0,{}]]]},{"name":"leaky_re_lu_LeakyReLU72","class_name":"LeakyReLU","config":{"alpha":0.3,"name":"leaky_re_lu_LeakyReLU72","trainable":true},"inbound_nodes":[[["batch_normalization_BatchNormalization72",0,0,{}]]]},{"name":"dense_Dense113","class_name":"Dense","config":{"units":864,"activation":"sigmoid","use_bias":true,"kernel_initializer":{"class_name":"VarianceScaling","config":{"scale":1,"mode":"fan_avg","distribution":"normal","seed":null}},"bias_initializer":{"class_name":"Zeros","config":{}},"kernel_regularizer":null,"bias_regularizer":null,"activity_regularizer":null,"kernel_constraint":null,"bias_constraint":null,"name":"dense_Dense113","trainable":true},"inbound_nodes":[[["leaky_re_lu_LeakyReLU70",0,0,{}]]]},{"name":"dense_Dense115","class_name":"Dense","config":{"units":864,"activation":"sigmoid","use_bias":true,"kernel_initializer":{"class_name":"VarianceScaling","config":{"scale":1,"mode":"fan_avg","distribution":"normal","seed":null}},"bias_initializer":{"class_name":"Zeros","config":{}},"kernel_regularizer":null,"bias_regularizer":null,"activity_regularizer":null,"kernel_constraint":null,"bias_constraint":null,"name":"dense_Dense115","trainable":true},"inbound_nodes":[[["leaky_re_lu_LeakyReLU71",0,0,{}]]]},{"name":"dense_Dense117","class_name":"Dense","config":{"units":864,"activation":"tanh","use_bias":true,"kernel_initializer":{"class_name":"VarianceScaling","config":{"scale":1,"mode":"fan_avg","distribution":"normal","seed":null}},"bias_initializer":{"class_name":"Zeros","config":{}},"kernel_regularizer":null,"bias_regularizer":null,"activity_regularizer":null,"kernel_constraint":null,"bias_constraint":null,"name":"dense_Dense117","trainable":true},"inbound_nodes":[[["leaky_re_lu_LeakyReLU72",0,0,{}]]]}],"input_layers":[["input36",0,0]],"output_layers":[["dense_Dense113",0,0],["dense_Dense115",0,0],["dense_Dense117",0,0]]},"keras_version":"tfjs-layers 1.5.2","backend":"tensor_flow.js"},"weightsManifest":[{"paths":["weights.bin"],"weights":[{"name":"dense_Dense111/kernel","shape":[2,512],"dtype":"float32"},{"name":"dense_Dense111/bias","shape":[512],"dtype":"float32"},{"name":"batch_normalization_BatchNormalization69/gamma","shape":[512],"dtype":"float32"},{"name":"batch_normalization_BatchNormalization69/beta","shape":[512],"dtype":"float32"},{"name":"dense_Dense112/kernel","shape":[512,512],"dtype":"float32"},{"name":"dense_Dense112/bias","shape":[512],"dtype":"float32"},{"name":"dense_Dense114/kernel","shape":[512,512],"dtype":"float32"},{"name":"dense_Dense114/bias","shape":[512],"dtype":"float32"},{"name":"dense_Dense116/kernel","shape":[512,512],"dtype":"float32"},{"name":"dense_Dense116/bias","shape":[512],"dtype":"float32"},{"name":"batch_normalization_BatchNormalization70/gamma","shape":[512],"dtype":"float32"},{"name":"batch_normalization_BatchNormalization70/beta","shape":[512],"dtype":"float32"},{"name":"batch_normalization_BatchNormalization71/gamma","shape":[512],"dtype":"float32"},{"name":"batch_normalization_BatchNormalization71/beta","shape":[512],"dtype":"float32"},{"name":"batch_normalization_BatchNormalization72/gamma","shape":[512],"dtype":"float32"},{"name":"batch_normalization_BatchNormalization72/beta","shape":[512],"dtype":"float32"},{"name":"dense_Dense113/kernel","shape":[512,864],"dtype":"float32"},{"name":"dense_Dense113/bias","shape":[864],"dtype":"float32"},{"name":"dense_Dense115/kernel","shape":[512,864],"dtype":"float32"},{"name":"dense_Dense115/bias","shape":[864],"dtype":"float32"},{"name":"dense_Dense117/kernel","shape":[512,864],"dtype":"float32"},{"name":"dense_Dense117/bias","shape":[864],"dtype":"float32"},{"name":"batch_normalization_BatchNormalization69/moving_mean","shape":[512],"dtype":"float32"},{"name":"batch_normalization_BatchNormalization69/moving_variance","shape":[512],"dtype":"float32"},{"name":"batch_normalization_BatchNormalization70/moving_mean","shape":[512],"dtype":"float32"},{"name":"batch_normalization_BatchNormalization70/moving_variance","shape":[512],"dtype":"float32"},{"name":"batch_normalization_BatchNormalization71/moving_mean","shape":[512],"dtype":"float32"},{"name":"batch_normalization_BatchNormalization71/moving_variance","shape":[512],"dtype":"float32"},{"name":"batch_normalization_BatchNormalization72/moving_mean","shape":[512],"dtype":"float32"},{"name":"batch_normalization_BatchNormalization72/moving_variance","shape":[512],"dtype":"float32"}]}],"format":"layers-model","generatedBy":"TensorFlow.js tfjs-layers v1.5.2","convertedBy":null}